sharpy/mlgw_bns_jax/data_default_NN/mlp_jax_params.npz (npz, 91494 bytes, 6 tensors)

W0 f8 [5, 82]
0	0x3fdd8fa501106bf3	0.46189236740036604
1	0x3fc55f02ae7b67ce	0.16696198958999137
2	0x3fbe75b2d41cc9a3	0.11898343733336118
3	0xbfd1de195a711773	-0.2791808493824341
4	0xbfc3c948dc70fd91	-0.15458021892298437
5	0x3fccb23f1ce62af0	0.2241896525486804
6	0xbfb1611e8d1cd2ac	-0.06788817353374083
7	0xbfdc3628c2436425	-0.44080561610241126
8	0xbfdff08d7b1a6ed9	-0.4990571691684927
9	0x3fd8a2233f4a8927	0.38489609890725024
10	0xbfa9c51717d2cf5a	-0.05033180394948884
11	0x3fe6d2707fd2268c	0.7131884094716994
12	0xbff18e49e84968b0	-1.0972384523106875
13	0x3fc5af3c42731270	0.1694102596722078
14	0x3fdab27219c90b03	0.41714146154497217
15	0x3fb83357078b3180	0.09453338560269309
16	0x3fa223685ee94d52	0.0354263892992558
17	0x3ff7e29c66475f46	1.4928249354615715
18	0x3f44cb0dbdcfcb50	0.0006345574471410074
19	0x3fd4c0f795809999	0.32427777862394574
20	0xbfd999813ced1fce	-0.3999941916449615
21	0x3fd412f2eb843740	0.31365654945044597
22	0xbf8d4cd202ee79d2	-0.014306679453338331
23	0xbfc453721dcb39fc	-0.15879656271722797
24	0xbfd3abcf3fc3aa49	-0.307361423749772
25	0xbfe0f521c02671b6	-0.5299233200963076
26	0xbf8f7d51de385e43	-0.015375747293588598
27	0xbfd916ce2ddd0a39	-0.39201693037844937
28	0x3fe0af34c1f3c792	0.5213874614839702
29	0xbfa98d3b6451966c	-0.049905639644561045
30	0xbfd034b7f6d97cec	-0.2532176886215456
31	0x3fe27ec33b0eb8b9	0.577973952624027
32	0x3fdd2fc107ee32cf	0.4560396745153356
33	0x3fba68baddbc75b7	0.10316055215340368
34	0x3fd732287ac85203	0.3624364089057794
35	0xbfe464baadceac3b	-0.637296046702779
36	0x3fdf74cadbd89d6b	0.4915034434256628
37	0xbfd981158c4a8834	-0.3985036726027176
38	0x3fc5747a36d565dc	0.1676171081297032
39	0xbfa8857eedb292c7	-0.04789349223691413
40	0x3fd268663d9ce68d	0.28762203232654643
41	0xbfc3cc3d809f6154	-0.15467041759871825
42	0x3fe07f148549a8c8	0.5155127146984109
43	0xbfc43f6b3dfea2ea	-0.15818539168437634
44	0x3fdf212154801359	0.48639710666639285
45	0xbfdf8c908e9ef7e5	-0.49295438697651967
46	0xbfe4145b93256f8f	-0.6274850725126145
47	0xbfe4b0f8275492ee	-0.6466027038737516
48	0xbfea759af9f449fd	-0.826856125060942
49	0x3f91ec352bb28cf7	0.01750262335975791
50	0x3fd64f265b8298d2	0.3485809224752191
51	0xbfc2a43d758d1d95	-0.1456372093182209
52	0x3fd355661c2db3da	0.30208733321961534
53	0xbfcb411940449423	-0.21292415273743
54	0xbfc9e918186f3c28	-0.20242596810428037
55	0x3fcaa57a7d3f9de5	0.20817500224732935
56	0x3fd99dfc3e0d7903	0.4002676588041966
57	0xbfdc5fab605493de	-0.44333919913543507
58	0x3fbb092b41b63640	0.10560865740100045
59	0xbfd145bbe79607b9	-0.2698812257368633
60	0xbfb1aaf157a27777	-0.06901462926404443
61	0x3fe06f47dbe74314	0.5135840697276728
62	0x3fd1f513c906289c	0.2805833304524954
63	0x3fbcc08675f09c92	0.11231270198242019
64	0x3fd55d8f1ce90a23	0.3338353903128867
65	0xbfac423ff19031ca	-0.05519294570703755
66	0x3fe1d00964a7540d	0.5566451040164125
67	0x3fd77bb3a2026c6a	0.3669251520274829
68	0x3fd0cbd68c357385	0.2624412888742927
69	0x3fd7549d1a1b1317	0.3645394091548026
70	0x3fd82e69d4c30d77	0.3778328492882887
71	0xbfa3c7f2337443c3	-0.03863484266378905
72	0x3fb339cb7cca353d	0.07510062977435879
73	0x3fb13834de7b0ee0	0.0672638934293519
74	0x3fdac64d2499e7d9	0.418353353255609
75	0x3fbc89e918f100d8	0.11147934779092183
76	0x3fd5cd97201db84d	0.3406732381471372
77	0x3fcc1af7133a15cc	0.21957291067898976
78	0xbfdc754ce4bd00fe	-0.4446594461224008
79	0xbf5a727f0fe4ad23	-0.0016142121163039223
80	0xbfdb4936c7f6c451	-0.42634362724044644
81	0x3fd4728ba1741d71	0.31949129836035356
82	0xbfcccbcc9d2b69a7	-0.22496946024223272
83	0xbfbeefa03908b2e1	-0.12084390060835971
84	0x3febbedd383ea9ae	0.8670488451510232
85	0xbfa6ec43f88b83ac	-0.04477131279941857
86	0xbfe438068915d049	-0.6318390538640496
87	0xbfc36ec5f300b7e7	-0.15181803098079102
88	0xbfb7a30c938b2d80	-0.09233168222561083
89	0x3fac26b148d5edb3	0.05498270048243672
90	0xbfbfc707f205c34c	-0.124130722606208
91	0xbfe06bc3f0e7521a	-0.5131549554012651
92	0x3f94f793c49a244b	0.02047568213905419
93	0x3fed464ccf1b2f22	0.9148315472643598
94	0x3f88281050c0208f	0.011795165504750819
95	0xbfb9fbdb9a9b7f63	-0.10149929546923668
96	0xbfb3f41f24e282bb	-0.07794375086315146
97	0xbf68f6c7da341f4b	-0.0030473616949428287
98	0xbf93e63231a04c87	-0.019432815817776585
99	0xbf49811a431f1145	-0.0007783296807635584
100	0x3fdc851f12826f86	0.4456250839955306
101	0xbfe3bec843ef054d	-0.6170388533429702
102	0xbfe39363bc5edb29	-0.6117418936836191
103	0x3fdbfcfbbd20aac7	0.4373158785771633
104	0xbfa0592c1c3de50b	-0.03193033070324177
105	0xbf95af4c81b825ac	-0.02117652456039358
106	0x40001b8013f9b991	2.0134278832039816
107	0xbfbabbeb17bb4b62	-0.10442990617165784
108	0xbfb4ddebdbf81b1a	-0.08151125068989665
109	0xbfdf89f93cdcddb2	-0.4927962393153066
110	0xbfba30ebbecfb2a1	-0.10230897339324453
111	0xbfe5d998c4f846b5	-0.6828121039454432
112	0x3fd9958e1b9896ef	0.3997531194203096
113	0xbfc8af61537371a2	-0.19285217833283946
114	0x3f9fc2966464dc4f	0.03101572978740946
115	0xbfc573d0ba240ef3	-0.16759690369519084
116	0x3fd9cef7fad52cf4	0.40325736518271005
117	0x3fa84494783a4eb0	0.04739822356819212
118	0x3fd483f11f4ad904	0.3205530934896077
119	0x3fc3b7fdc3272b69	0.1540524676223314
120	0x3fd0edb850afd13a	0.26450927619523024
121	0x3f6fe3b7e91a3c8d	0.0038927642825182297
122	0xbfe0566f87d162f8	-0.5105512287801437
123	0xbfbc16892e0dee16	-0.10971886991858812
124	0x3fd2ec09a1ad3ece	0.29565659321540927
125	0x3fc078d83246eb01	0.1286878819936064
126	0x3fe3919cbbf235b2	0.6115249319861304
127	0xbfd83b5e44158cef	-0.37862354897352096
128	0xbfc2eab0f6ba45f7	-0.14778720900771677
129	0xbfae681f16ef5b7a	-0.05938813357322821
130	0xbfe05a7c16a52bc8	-0.5110454981125878
131	0x3fdd72d21ddbe03b	0.46013310352236986
132	0x3fc6f5e6a92e3b45	0.17937930355807388
133	0xbfd2fb295f212f77	-0.29657968797686557
134	0x3fc28e3096bc00dc	0.14496428833081765
135	0xbfc3d2ebdfe13c16	-0.15487430984146106
136	0xbfd0a41da24c56ae	-0.2600168309157692
137	0xbfd7f83a7058719b	-0.3745256516574728
138	0xbfcf4713f4784ffb	-0.2443566268635776
139	0x3fc41f767d2c3ddc	0.15721016990617798
140	0x3f60b23d4f376712	0.002038116211889548
141	0x3fab25564acb8773	0.053019234304669725
142	0x3f94e43ccb22da34	0.020401906870313805
143	0x3fd67f29d19a14a6	0.3515114352124534
144	0x3fe8ebd2fa489f6a	0.7787871254304097
145	0xbfb3c841e7ed2cee	-0.07727443611399895
146	0x3fd4eee7c1d0fe6a	0.3270816223848444
147	0x3f93e55f31fda3a4	0.019429671693987807
148	0x3fc2959941311275	0.14519038851917157
149	0x3fd58ec10e49d513	0.33683802028038307
150	0xbfdbde7c901dc94d	-0.4354545028101214
151	0xbfe47cc990fa5c7e	-0.6402328330613185
152	0x3fd88fcbad588712	0.3837765877561746
153	0x3fc0b4a29a0b59b7	0.13051254769989182
154	0x3fd371eeac49263d	0.30382887673167486
155	0xbfe224dbe047c491	-0.5669993763423397
156	0x3fca2aade0940778	0.20442746606573414
157	0xbfd0dcda0e69ec09	-0.2634797230491022
158	0xbfc251367c71543a	-0.14310341907790464
159	0xbfdb622ca40be15a	-0.4278670885101029
160	0xbfd2f04ae4550fdc	-0.2959162931258541
161	0xbf22458589e73084	-0.0001394010077561161
162	0xbfc90983849723c9	-0.19560283636226775
163	0x3ff412ec85884e9f	1.2546200958358111
164	0x3fc12ab6d8bb2f38	0.13411603529527283
165	0x3fa460d2770ab963	0.0398011942210015
166	0x3fa0eed60e3af158	0.03307217525204703
167	0x3fc0bf2f7fa59662	0.13083451969866916
168	0xbfa3449d7f34e6ff	-0.037632867601542934
169	0xbfa0cc7866a17c63	-0.03280998471085963
170	0x3faf5b60bbf5f8a8	0.061244032806812954
171	0xbfcbf5aef5ccc358	-0.21843516351648407
172	0x3fcc60676c83f73a	0.22169201658828702
173	0xbf9c2bea69dcce2a	-0.02751127501615095
174	0xbf9528ec777b7572	-0.02066392401944967
175	0xbfc5841cc972f013	-0.1680942519795968
176	0x3fc191c07c1c5b08	0.1372604948052969
177	0xbfc9dd1e2bd32003	-0.2020604814517811
178	0x3f941f9d52324bd9	0.019651849882006054
179	0x3fd60fde9a4a742d	0.3447185999628484
180	0x3fe4f58c8d5dc4e7	0.6549742470798748
181	0xbfcd1a18551cf871	-0.22735885768810563
182	0xbf9a75c46c4c4d27	-0.025839871511448422
183	0x3f9225dfc3a714f1	0.017722603146258235
184	0x3f9090a7d7c68483	0.01617681745995415
185	0x3f7b67446dd16896	0.006690280247392396
186	0xbfdf4e869dbe4398	-0.48916783718692036
187	0x3fcb3da602cc86fc	0.21281886231104596
188	0x3f94bcdcb6d1bca3	0.020251701982883074
189	0x3f82d7451ddf08d1	0.009199657415483039
190	0xbfa63bf5643d632d	-0.04342619751577668
191	0x3f93d52d16a56a18	0.019367889888011275
192	0xbf9a5b2e617d0d84	-0.025738453579163614
193	0xbf94aab55405816f	-0.02018245053602768
194	0x3f8da12e38e580f0	0.014467583762496322
195	0x3fc450fb4da4f988	0.15872136393768366
196	0x3f9ca886e987b41b	0.02798662948946538
197	0xbfaa1382c1c6af40	-0.050930105356512545
198	0xbfa53685fe2845a2	-0.041431605601370394
199	0x3fa350464afe0106	0.0377218214553086
200	0xbf910322b5486c6a	-0.016613523783331287
201	0x3fba8636bef49d31	0.10361044084549033
202	0xbf633e6acd6c4ef8	-0.002349098776344035
203	0xbfc1a4f43afecf31	-0.13784649735100055
204	0xbf96efe645fb8b9b	-0.02239951898708235
205	0xbfab0973b61440f1	-0.052806488014654714
206	0x3f94c5865660da44	0.02028474714480867
207	0xbf9eceee88b591b0	-0.0300862570706088
208	0x3f9339d1665608cd	0.018775245543573505
209	0x3f9b017e15e51ce2	0.026372881018031154
210	0xbf6bb673cc7a8b1b	-0.003382898492263376
211	0xbf74b645d6811984	-0.005056641392064857
212	0x3f99aed8f9a2b02d	0.0250810530057352
213	0x3f92b0f9c0f77368	0.018253233340021963
214	0xbfc13d70950b7585	-0.1346874931104304
215	0xbf93f333766ace31	-0.019482425787556493
216	0xbf6501e86ea529ea	-0.0025643863383823977
217	0x3fbbd17a2ccce97c	0.10866511911163984
218	0xbfad0c7c5bd2e6c8	-0.056735883912052254
219	0x3fb4ce563516de23	0.08127344890714787
220	0x3f48bce0836f6435	0.0007549377686429994
221	0xbfccc636f3d9ab81	-0.22479903132201787
222	0x3fec13ba7bb35de1	0.8774082580593437
223	0xbf966097c9e73221	-0.021852847765147957
224	0xbfcf38a242f98fd9	-0.24391582746750265
225	0xbfae4d72786c639d	-0.05918462486278673
226	0xbf94af5492efc8b5	-0.020200082271863724
227	0x3f9db7961b430a1b	0.02902063886063831
228	0x3f8ef8489c621d90	0.015122000954092468
229	0xbfc498bbeaaa37a4	-0.16091107328651078
230	0xbfb9576ba7274a90	-0.09899018126388115
231	0xbf92ff124d7abc4e	-0.01855114553353259
232	0xbf7c24d9d9264175	-0.00687108132332558
233	0xbfa1a5e59df1c2ad	-0.034468818216628484
234	0x3f54448f08120106	0.001237048796866759
235	0xbfb3d002c1eea551	-0.07739274248765084
236	0x3fac9f5678ed7998	0.05590315080802383
237	0xbfb1a62ed708fb0d	-0.06894200086479092
238	0x3f4ecd48290979fc	0.0009399988503664965
239	0xbf91584cbdabf30c	-0.016938399387970413
240	0x3fcffe1207ca8758	0.24994111423898846
241	0xbf9d97e092987e9d	-0.028899678180208544
242	0xbfdc6bec5cfa815e	-0.44408711509642795
243	0x3f66758688b5fff2	0.002741587411662743
244	0xbf7e7091fc2211f4	-0.007431574109550077
245	0xbf8e8f80093e8ce2	-0.014922142297854216
246	0x3fd85e6a50fd3259	0.38076265248381486
247	0xbfdaa2a3fd61871b	-0.41617679352030884
248	0xbfb1114c870779e4	-0.06667021080600183
249	0xbfc0e59de418dbe7	-0.13200734746507622
250	0x3fd20297080b7d52	0.2814080790103236
251	0xbfb55a09f06a693c	-0.08340513343356276
252	0xbfa07968b2d80c64	-0.032176276999984293
253	0x3fa5479de88a7233	0.041562018047646275
254	0x3fb4e94b1375d027	0.08168477273085327
255	0xbfd38043e86464c3	-0.3047036904768669

W1 f8 [82, 95]
0	0x3ff664418e4d0bde	1.3994765814429608
1	0xbfd240a12179c8c6	-0.2851946665679289
2	0xbfec3f447f7974d9	-0.8827230920539036
3	0x3fe3fe024f6cdcb4	0.6247569609903594
4	0x3fe37d2b4081a65b	0.6090294132129189
5	0x3f87e37e9ed30220	0.011664380285197729
6	0xbfe7ee26094ca458	-0.7478208715084618
7	0xbffa705bafda9193	-1.6524311894691877
8	0x3ff13babd50ef1eb	1.0770681688874173
9	0x3ffd16e11ef39cd7	1.818085785774931
10	0xbfd2a4af5d5831c2	-0.29130157581019145
11	0xbfebd41377f7c352	-0.8696381896134915
12	0xbfe50ade9d3edc9e	-0.6575768538667892
13	0xbff853fa7e6ff27a	-1.520502561469725
14	0x3ffe300695c29662	1.8867250299457727
15	0x3ffd860f3072b869	1.8452293293480813
16	0xbfeb1d264d359933	-0.8473083026881681
17	0xbfec99838d5c0960	-0.8937394867828452
18	0x3fcdbf1608d217ec	0.23239398413369317
19	0x3fcdea0c38a2181d	0.23370507016460432
20	0xc00065a9e64d2a89	-2.0496404640483132
21	0xbfd92f6608ace52e	-0.39351797911838815
22	0x3ff6389bea2b4dbb	1.3888205668671236
23	0xbfecc4d4e72a8b81	-0.8990273013081237
24	0xbff2b3f61faaae04	-1.1689358937245524
25	0x3ffa46638366c233	1.6421847470156876
26	0x3fe80ae04a2e5c83	0.7513276528215019
27	0xbfec599401aac0e0	-0.8859348328169538
28	0xbfe5cf7616b51ccb	-0.6815748637681279
29	0x3fdba5f358ca312d	0.4320038191879288
30	0x3fdd163f200a7b3a	0.45448282364843673
31	0x3ff00a8e6709fad3	1.0025772118530554
32	0xbfd6f1df5b78422e	-0.35851272518724187
33	0xbfd332f04a87e095	-0.29998404768367354
34	0xbff61bca99c27c08	-1.3817850118864516
35	0x3fae7cfe8d6a4613	0.05954738117464955
36	0xbfe6a0929ffa9f0d	-0.7071011662091863
37	0xbfebef9fcd0b7c25	-0.8730010037214738
38	0xbfcd1fdbd5232302	-0.2275347510060542
39	0xbff62f0dca141b81	-1.3864877599423553
40	0x3ff08b1f29f07c9f	1.0339652670152544
41	0xbfd433668a89881e	-0.3156372406866711
42	0xbfd33128bd22471d	-0.2998754355440825
43	0x3ff16746185409aa	1.0877133322070258
44	0x3fe6ec3a71f6f1ec	0.716336462580839
45	0xbff15bd5b9746527	-1.0849206203768718
46	0x3ffac38b15214c05	1.6727400613206111
47	0x3ff949d84f11ddba	1.5805285538352636
48	0x3fe52fb6c4ebb5fd	0.6620744558437647
49	0x3feda5814994135d	0.9264532506063962
50	0xbfe2e36b45c9708a	-0.5902611125016091
51	0xbfec0be67cfe131e	-0.8764526788005218
52	0x3ff0fd208b4ae94a	1.0617986146085792
53	0x3ff691d1b6ba3d63	1.410600389270109
54	0x3fe32e25d9ca0832	0.5993832830138273
55	0xbff8080c138b1ca6	-1.5019646418966572
56	0xbff69d2a64c8942a	-1.413370507894124
57	0xbfdb63bca77745a8	-0.4279624591264004
58	0xbff1314f7a1b4d14	-1.0745386857786956
59	0xbfdb4fd44df73a98	-0.4267473946937712
60	0xbfd9079476416b8d	-0.39108764217751785
61	0x3ff98b2957eac070	1.5964749750383156
62	0xbfe092121d0cad0a	-0.5178309028027865
63	0xbfd87bf4517dabbc	-0.38256557424636717
64	0xbff01525dd93d809	-1.0051630645152747
65	0x3fd6753db04582fa	0.35090582098023015
66	0xbfed1a41f703ea07	-0.9094552826421144
67	0x3fcdaafb4e12eff2	0.23178044616895438
68	0x3feac5628f795b61	0.8365948488452483
69	0xbfe41bdf090f8fe4	-0.6284022500008146
70	0x3ff31dcb55db12ae	1.194773993848837
71	0xbfd1a612e3ebda30	-0.2757613397401739
72	0x3ff2a231db1c500f	1.1645983275420837
73	0x3fffdf8e6572f618	1.992079159055157
74	0xbfebf692bebaadf0	-0.8738492703609477
75	0xbfe9310947b84ae6	-0.7872358704356344
76	0x3fe38167b0ea5d93	0.6095465140705748
77	0x3fbc54ad0aeb531c	0.1106670524271291
78	0x3fe59ca0ebaf447a	0.6753697016921614
79	0xbfe843330d889373	-0.7582030548406763
80	0xbff4b76ade97a947	-1.2947796530739468
81	0xbfd95d2f6e643909	-0.3963125780145594
82	0x3ff91011b8d907c8	1.5664231510750017
83	0x40003c02b5ae1c2f	2.0293020433196243
84	0x3fe9b6019230aff1	0.8034675460125965
85	0xbfefe1e695c597bd	-0.9963257718306903
86	0x3fdfc9b1ec0f3046	0.4966854863421343
87	0xbfadfaad183eaee8	-0.05855313225705833
88	0xbfe37776d2e4ca20	-0.6083330267923124
89	0x3fec2aa6718d015f	0.8802063195981126
90	0xbfe38ff69d8e4a3e	-0.6113236500990025
91	0x3fed02ef0ddcdb64	0.9066081305271436
92	0xbfc50222e2d491ce	-0.16412769389820742
93	0xbff547f6e245d0d3	-1.3300694311883958
94	0xbfd29c291389c954	-0.2907812777331362
95	0x3fe55cd4b3ff3ffb	0.6675818934982084
96	0x3fe4ef5504784cdf	0.6542153441718276
97	0xbfdcbac1baa915e0	-0.44889872768939476
98	0xbfc85620e93b8b1d	-0.1901284350234044
99	0xbfea4d16e8698a1e	-0.8219103373815562
100	0xbfd96fb43b7abd98	-0.3974428730825479
101	0xbff2f7111e423026	-1.1853190595602512
102	0x3fe02e3efd5e7a0d	0.5056452702154403
103	0x3fe91475d4dc59c5	0.7837475926815435
104	0xbfe5447928a146a9	-0.664608554225386
105	0xbfdf2acf78076371	-0.486987940993962
106	0xbfe77c40e3a6c564	-0.733917660361993
107	0xbfe15bf6083efe12	-0.5424757157379096
108	0x3ff2b96fb1f61735	1.1702725364315942
109	0x3fb17a331a3e9314	0.06827086821301648
110	0xbfe069dbba1a1b0c	-0.5129221567920879
111	0xbfae23869f0af8c3	-0.058864790834819235
112	0xbfe56caf0a86f6e5	-0.6695170598611325
113	0x3febdac9b54d04d2	0.8704575100929566
114	0xbfd2d05bd643c2f9	-0.2939672081402445
115	0xbfb762dcd0d8b418	-0.09135227297584014
116	0xbfd79db5e66afa26	-0.3690008878874401
117	0xbfe692c907246655	-0.7054181231971578
118	0x3fe38435b851483f	0.6098888969374981
119	0x3fe23b20f7b27c1f	0.5697178685985625
120	0xbff7f552e09c6f7b	-1.4973934911604079
121	0xbfee461ea6724b77	-0.9460595370204449
122	0xbfddebef4ec536b0	-0.4675253171197751
123	0xbfef7b9cec996ce6	-0.9838394757347515
124	0xbfe243569e6ae013	-0.5707200140086591
125	0x3fe60c75182e3334	0.6890206787371427
126	0xbff5d48debc372e2	-1.3643931588659872
127	0xbfc095433077c711	-0.12955512873264088
128	0x3ff606b706e85fca	1.3766393918831334
129	0xbfea71d3059e0a54	-0.8263945684160015
130	0x3fc2ca049532a2fc	0.14679009709404756
131	0xbfe0ebe3b45a721a	-0.5287951014066181
132	0x3feef41e6c2f78d7	0.9672996628758267
133	0x3fc186079808d184	0.13690276073033314
134	0xbfcc5356b9c1fa35	-0.2212932974834573
135	0xbff230e876467958	-1.1369404430511931
136	0xbfe9b58674b3c955	-0.8034088401166551
137	0xbfeae61fe7a36a7d	-0.8405913852869414
138	0xbfead1bc015835d9	-0.838102343202702
139	0x3fe9113e64aee4fe	0.7833549467533485
140	0x3f9edf541a9ebceb	0.030148805737266676
141	0xbfe15f940a82bf69	-0.5429172711646802
142	0x3fe1e8b5bb554074	0.5596569689605659
143	0xbfee305fe96ae86b	-0.9434051093042063
144	0xbff13d84c1b26911	-1.0775191847120065
145	0xbfdf1a631a7d9a56	-0.4859855421731586
146	0x3f6d8172dea2bebe	0.0036017650173432994
147	0xbfe1e27704780a88	-0.558894642570821
148	0x3fa04629836a9ac0	0.031785294811290665
149	0xbfd0186a7b54ed08	-0.2514902309810201
150	0x3fe26c58115c7b39	0.5757255877577797
151	0x3fcf6aff609639e3	0.24545280662682875
152	0xbfb01d320ea2cbd1	-0.06294548852274252
153	0xbfddcbada9e8af11	-0.4655565413729486
154	0xbfead7760bae0794	-0.8388014057274966
155	0x3fa65f17351b64bc	0.04369423411635284
156	0xbff0555db3a88000	-1.020841314115387
157	0x3fe2ea6f45bc9f1e	0.5911175119444783
158	0xbfcc70e5c4fdc7b0	-0.22219535940854263
159	0x3feda5eaec3254d6	0.9265036214079838
160	0x3fcefbda7c91a9a9	0.24206095774145567
161	0xbfda849c6481e6d8	-0.41434392752817706
162	0x3fd157781fe6376d	0.2709636985317648
163	0x3ff33991e5f29651	1.2015551550224652
164	0x3fad5bf46de60dbb	0.05734218446289271
165	0x3feca2538facb5ff	0.8948152357240245
166	0xbfef7fd06a30f02b	-0.984352309612864
167	0x3fda9ac3a2062f3c	0.415696056582181
168	0xc0036953776d6e55	-2.4264287309904753
169	0xbfeafcc22239e45e	-0.8433542889098466
170	0xbfeb9badd1225b5a	-0.8627537808086843
171	0xbfd913adff0883dd	-0.3918261519011688
172	0xbfaa7c54c86cb2bf	-0.05172982164945016
173	0xbfea2483365b64ef	-0.8169570981655435
174	0xbfcc839258731d7a	-0.22276524847823592
175	0x3fcbc47d3a3e147f	0.2169338735949715
176	0x3fe544c489bb3511	0.6646444978775056
177	0xbfd0b279dcbef0d2	-0.26089331204617594
178	0xbffbd1e79122237b	-1.738746230055965
179	0xbfe8371a215d37cc	-0.7567263270991531
180	0x3fe0ef82981ccff3	0.5292370768497662
181	0xbfaf879d287581d3	-0.061581526936382545
182	0x3f9b7c8e5c4e5579	0.026842331298742892
183	0x3fe903cad112d6a8	0.7817129214733614
184	0xbfe83aefa68e912a	-0.7571943524422171
185	0x3fe3fd9f497ed796	0.6247097430666482
186	0xbfe8c83df50b55c1	-0.7744436059971848
187	0x3fd37f7d42590b0a	0.3046563289573646
188	0x3fea5feac23308ec	0.8242086213070059
189	0xbfe103fcfeb4cc23	-0.5317368483287094
190	0x3ff0a755eecfb8a7	1.0408534363337283
191	0xbff71e6158b1adb6	-1.444917055569801
192	0x3ff56b1302e5b9d1	1.3386411774805433
193	0x3ff236b2b6a88c6c	1.1383540282338585
194	0xbfe656f1383f4fbf	-0.6981130693989072
195	0x3ff00de2c4870369	1.0033900906421087
196	0xbfd6873593bd2a66	-0.35200251987104136
197	0xbffb014a232f3cc0	-1.6878148435969678
198	0xbfe87462b2aa0623	-0.7642072190794277
199	0x3ff728f3313b7969	1.4474975512635757
200	0x3feac4ec6630af4f	0.8365385051633697
201	0x40003b484a6feac6	2.0289464774517425
202	0xbfdaa9c2b724680c	-0.4166113651750727
203	0xbfda90a3ae3afeef	-0.41507808699314713
204	0x3ffbfe59816b86ce	1.7495970778913263
205	0x3ff556617e272087	1.3335890701146427
206	0x3fe1e336ba281153	0.5589860568875714
207	0x3ff2ae827e4d233d	1.167604916920211
208	0xbffef36a2ae15f72	-1.934427421094338
209	0x3fe9a418a69f4854	0.8012812856998246
210	0xbff615b3fca2b02d	-1.3802986019682166
211	0x3ff0066a29ade2f6	1.0015660884948239
212	0xbfb0f7c296fc6b5c	-0.06628051935369456
213	0xbfb3067f84f17bff	-0.07431790347753518
214	0xbfe45b2556ffcc51	-0.6361262034610126
215	0x3ff088f062aba573	1.033432374412169
216	0x3fd8548c31e3ffaa	0.38016037819033477
217	0x3fe54b057460d0c0	0.6654078743945533
218	0x3ff66af19522a3fb	1.4011092973325947
219	0xbfebd774f6288bbe	-0.8700508888035683
220	0xbff6a21883c9f762	-1.41457416038562
221	0x3fdca3de57e8c852	0.44750174126523234
222	0xbfc40766c7ee734a	-0.156475875494744
223	0xbfd66c1faa27c2f1	-0.3503493463204413
224	0xc0019d27b20f3022	-2.2017358694920555
225	0x3fd2cea095cae60e	0.29386152866536086
226	0x3fef8501c4727be4	0.9849861943110878
227	0xbfc07e9e1db7f246	-0.12886406375027287
228	0x3fb619ba518aed40	0.08633007517612601
229	0xbfe1ceab723f9673	-0.5564782363332611
230	0x3ff277b1a2ff9f33	1.15422214194582
231	0xbfe74600bdf223b6	-0.7272952756767299
232	0x3fe71808c673f60e	0.7216838718447336
233	0x3ffad317eef2b87a	1.6765364965354181
234	0x3ff0a826c125e4c9	1.0410525841564768
235	0xbff04d14ce539b6c	-1.0188186702377733
236	0x3ffc5e83cfc7ca43	1.7730749241278694
237	0x3fffb0ce916d35c5	1.9806657486654882
238	0x3fefc405c4c394d3	0.9926785319372818
239	0x3fa16aa88ce262d7	0.034016864011567165
240	0x3fe857affd081d6f	0.7607040349984525
241	0x3fa71fd48c1f931f	0.045164720635318505
242	0xbfd22c1f4c2299ad	-0.28394300875734296
243	0x3fd5f3ca9fd6efe6	0.3430048523839545
244	0x3ff4b50c35e662a5	1.2942010980097305
245	0xbfd6916213cb13e0	-0.352623481110923
246	0x3fb8f83e1c17ee4e	0.0975378817164991
247	0x3fa9c7e9fb43185e	0.05035334770359222
248	0x3fecadf3dc89cf89	0.8962344462765809
249	0x3fd67a19ed919127	0.3512024707799974
250	0xbfcd75844f99addf	-0.2301488293336282
251	0x3fe23816c079b52d	0.5693467864308893
252	0xbfc57075459b564b	-0.16749444865006277
253	0xbfcdc52f568ce7e0	-0.23258010603041068
254	0x3fe72c66fb2b8283	0.7241701989806447
255	0x3fc90089aa0e49a2	0.19532891086107634

W2 f8 [95, 30]
0	0xc0466d75a95e2833	-44.85515324685584
1	0x4051e6804e008192	71.60158109712054
2	0xc02242ac39126116	-9.130220206731376
3	0x4017c0f427dfb9af	5.938431380300627
4	0x3fcaf4c999590fef	0.21059532153787994
5	0x4004d3278e083783	2.603102788568266
6	0x3fbe8039d6a202c6	0.11914407243785793
7	0x3faed81198453615	0.060242223584833145
8	0x3fea1e1ea7c31f5a	0.8161767269711888
9	0xbf823ad1c22126a0	-0.00890125154195981
10	0xbff52cbebcef354a	-1.3234240894556302
11	0x3fd53de116b8cddf	0.3319018098729582
12	0x3fe19f5d54bbeb4c	0.550703683372697
13	0xbfec22e90cc34d1a	-0.8792615174556062
14	0xbfc74a7516d77a58	-0.1819597589046278
15	0xbfa06ad39d4e7998	-0.03206502242322812
16	0x3fde40326bdb82f1	0.4726682713790487
17	0xbfc229e05047b68d	-0.1419029609673327
18	0xbf9d44d39bee733f	-0.028582865135479137
19	0xbfaaa35c6658dbd6	-0.05202759503702452
20	0xbfc54d7558f64515	-0.16642634242865798
21	0xbfaa7ac3d81c9ab0	-0.05171787274439532
22	0xbfa7cf5edf89c392	-0.04650398710953775
23	0x3fa07e43fe89981e	0.03221333009859982
24	0xbf92b74405be87c3	-0.01827722821293044
25	0x3fb4b79edf65d477	0.08092682794615934
26	0x3fae44e787d4497b	0.05911944897720197
27	0x3fa7fb4a4456af5c	0.0468390663548621
28	0xbf8f368aae427187	-0.015240748827914498
29	0x3f8ada4f9de50c23	0.01311170769316134
30	0x404bfb781e997f1a	55.96460325713106
31	0x4026c3c54eabc65d	11.382364710301028
32	0xc01b6d6131ba0e01	-6.856816079121473
33	0x4008828982a8e968	3.0637388427541516
34	0x4011c60c2798ac06	4.443405741399152
35	0x4014c9251f21a021	5.196430670192087
36	0xc0049ac4581ed716	-2.575569809380691
37	0x3ff7f73ef8c7d6e3	1.4978627889626572
38	0x3fd4d112d8b728da	0.3252608410226806
39	0x3f9f5ba75ce74cc7	0.030623068852787563
40	0xbfce0dc26ec564a2	-0.2347949066995954
41	0xbfc5a6e80d4b5960	-0.16915608071458177
42	0x3fa2f21f72749bf7	0.03700350067293095
43	0xbfe21a81e3252424	-0.5657357632090947
44	0xbfbb58b3a04e30cc	-0.10682222999293173
45	0xbfbcf959ff188535	-0.11317980268406276
46	0xbfb38b063b32a524	-0.07634009309062556
47	0xbfa8e4159a493eb8	-0.04861514576316267
48	0x3f99b3b474e6ac27	0.02509958232409928
49	0x3fb16eeb185a8835	0.06809872955867109
50	0xbfe2315f06b40ab5	-0.5685267573283769
51	0x3f7f7be4617607ea	0.007686512100351076
52	0x3f835f60a130d965	0.009459261817124706
53	0x3f98e42636383c28	0.02430782037668791
54	0xbf853e15c17d1bf7	-0.010372323958689462
55	0xbfa8d10329423257	-0.048469637667129355
56	0xbfa0c8d6a7dbdc7c	-0.03278227614458104
57	0xbfa971d67ae1e1bd	-0.049696638584410625
58	0x3f582d6e8f9afba5	0.0014756755539761881
59	0xbf920e5c7204861e	-0.017632908305250543
60	0x404c2071a7f1190b	56.2534685065494
61	0xc0268d1343e9d344	-11.275537607472536
62	0xbffbd4910ad3a49d	-1.7393961356085932
63	0xc021830d5bdbd4a0	-8.75596129473189
64	0xbfe7c2280170f6b5	-0.7424507167958924
65	0xbff8a26297a5a328	-1.5396448062621833
66	0x3fb963a5be06e338	0.09917674912766195
67	0x3ff3c7b482472acb	1.2362561310753104
68	0xbfdd632e5f25f9d8	-0.45917853633718897
69	0xbfdcd863222579eb	-0.45070722899063637
70	0xbfce777f622c787b	-0.2380217770923457
71	0x3fe6a4af6c485b3a	0.7076031794448234
72	0x3fbaa030d0e71e13	0.10400681591192322
73	0x3fe379a3d0ec5c9a	0.608598621419236
74	0x3fcad607a9ff8c03	0.20965667534537155
75	0xbfb0e0e696dfa27a	-0.06593171294628944
76	0x3fd082ac18888d86	0.25797560115662355
77	0xbfaaa1898dbfbc6e	-0.052013681939450204
78	0x3fa88851b8f13304	0.04791503317446735
79	0xbf34a62e740ebfc0	-0.0003150809680461074
80	0xbfb6d9f870359a8b	-0.08926346530425115
81	0xbf9988c814f58f60	-0.02493584278035088
82	0xbf9d70538ff50500	-0.02874880376953559
83	0xbfbb71538cf75ac2	-0.1071979731708366
84	0x3fb19b44b6b11d5d	0.06877545795679425
85	0xbf79901b9dd76f17	-0.006240947606297251
86	0x3f86dee1d2b8c083	0.01116730140992695
87	0x3f9dcd14bbb6fd2e	0.02910263438911647
88	0xbf8e5d721c35ce1c	-0.014826671110063798
89	0x3f8d6bb5e43ecb60	0.014365597751611225
90	0xc04d7b4277379eea	-58.96296587196214
91	0x400ec5d48392dc14	3.8465967444603937
92	0x3fc89001a5460da9	0.19189472742082828
93	0xbfe29294e3101a1d	-0.5803932604620204
94	0x3fc711a9f9d0d133	0.18022656152755587
95	0x3fe49b99ad4cc2da	0.6439941773188267
96	0xc00f6236cb447615	-3.922956073786518
97	0x3fd409bb830f337b	0.31309402273910053
98	0xbfe4896e34ed81ce	-0.6417761834855413
99	0x3fcf5417287462a3	0.2447537372143148
100	0xbfb4cfffaa96c253	-0.08129880823867923
101	0xbfd22697e0dfc18a	-0.2836055465732207
102	0x3fb5064fe00468aa	0.08212756365938625
103	0xbfbfa17b6ea61627	-0.1235577721727955
104	0x3fab9afccd060380	0.053916835810929875
105	0xbf9ff7ceb664415b	-0.03121874798040501
106	0xbfc81d8b16b364fe	-0.18840159042773758
107	0x3f924dbd0fa3619d	0.017874673919182283
108	0xbf9c17510a2ed2eb	-0.027432695623889208
109	0xbf942c29ab3a1aa2	-0.019699717594017792
110	0x3fc22acde29098e5	0.1419312816880797
111	0xbf78800d5db18ce9	-0.00598149510469457
112	0xbf9e9f93108ec26f	-0.0299056032997122
113	0xbfb8b501f5c86682	-0.09651195765072809
114	0x3fc019f82a75db4e	0.12579252312908767
115	0xbfb20259f95dc3de	-0.07034838045161915
116	0x3f6faeae5764d793	0.003867474089157727
117	0x3fa01ae4b63b2e9e	0.03145518040181837
118	0xbf7a6ce32ffd0242	-0.006451499415391528
119	0x3f91bddc46ee7dda	0.01732582266742875
120	0x404939ad00b01169	50.45059212300368
121	0x40472f4577c95d59	46.3693074925638
122	0xc0356f78dad41f29	-21.435437847888497
123	0x4023f7a0f81c364a	9.983649972385269
124	0xbff2c4cad6179bc9	-1.1730450022675873
125	0xbff755fbf61afcdc	-1.4584922421925546
126	0xc00c16fa55e60661	-3.51121966465216
127	0x3ffb13da78b16531	1.6923470224922534
128	0x3fe563ba47fa1a2b	0.6684237867164645
129	0x3ff61dc4867094e6	1.382267499118194
130	0x3fe3f273c430fdfd	0.6233462173331074
131	0x3fcc921e40bd5f9e	0.2232091728317273
132	0xbfe33e53bf0c9b4e	-0.6013582927160799
133	0xbff22cb1a1d75262	-1.1359115907590867
134	0x3fd12c170d04e48d	0.2683160426273126
135	0xbfc944e5b3e930b1	-0.19741507801734806
136	0x3fd03d8587807266	0.25375498039810507
137	0xbfc460aee16a762b	-0.159200534883824
138	0x3fc2eeb4925abdf9	0.14790970941747597
139	0x3f9012d97163ba27	0.01569690470290133
140	0xbfe0c3f018a33496	-0.523918197746428
141	0xbf9f653f84392c68	-0.030659668393394318
142	0xbf99a95b12090a91	-0.02506010339335291
143	0xbfbda42c059b163d	-0.11578631531582402
144	0xbfa0856cedf7dfe0	-0.03226795582662567
145	0x3fbee3e6ab68d62f	0.12066499409487429
146	0x3fa8e2a9909de604	0.04860429659215629
147	0x3fa88334dc1985e2	0.04787602602733522
148	0xbfa8a150861569b0	-0.048105732314712824
149	0x3fa9f10a86496327	0.05066712273828094
150	0xc04e884a8128c906	-61.06477369777171
151	0x4010db632b19306b	4.214245484745429
152	0xc02aca57c7b78aac	-13.395200959353438
153	0xc00609e382df0fd0	-2.754828474457078
154	0x3fd86dd85a2a14e2	0.3817044144164595
155	0x3fd858782a6ce872	0.3803997434912453
156	0xc00d4df726cf8aa8	-3.6630690605246237
157	0xbfbe16c22317d04b	-0.11753476483119234
158	0x3fc7d9b07a23ea81	0.18633085216409387
159	0x3fab116d330f7c5f	0.05286732910439506
160	0x3fa038c3087f6581	0.031683058535871396
161	0x3fd10ae4b9233270	0.2662898834212575
162	0xbfa8b601a8c020a8	-0.048263599252153455
163	0x3fd328850fca32b0	0.29934813062645116
164	0x3fa01572032ac536	0.03141361511860412
165	0xbf79553af0f8c574	-0.006184797515332508
166	0xbf9c6cd79e6533dd	-0.027758950274165407
167	0x3f9e20a48477737a	0.029421396813507063
168	0xbf8b84db81c1ee6e	-0.013436999223123549
169	0x3f8d0bd4463e8a00	0.014182718652425486
170	0x3fa8afa294753465	0.0482149893019617
171	0x3f66371e1dee39e7	0.002711829015829215
172	0x3f950ebfeb2efe12	0.02056407807299194
173	0x3fa4e5089a6a8fb3	0.04080988774265339
174	0xbf7338b8427bff45	-0.004692764057608494
175	0xbf97e795d1e27b56	-0.023344365058274384
176	0xbf8dfd277aec48e4	-0.014643009604274622
177	0xbf8af5ce728f0970	-0.01316415106874011
178	0x3f761083c56cefba	0.005386843425011218
179	0x3f18642a5b612ba0	9.304531599345226e-05
180	0x404aad712a60ec3a	53.35501603825146
181	0xc0433d989d9d3540	-38.48121996093914
182	0xc01e65822392eb47	-7.599129253236987
183	0x401c9ef45c9737e8	7.155229040841711
184	0x3ffe6842beb2bfa3	1.9004542779111737
185	0xbfe8ef6090ee7641	-0.7792208510106279
186	0xbffc36db3b901a6f	-1.763392670314399
187	0x400c4bd3e6717e67	3.537025261248164
188	0x3fc8f447d9803c28	0.19495485420381553
189	0xc00d7ca88af2abec	-3.685868344813107
190	0xbfd147dff0b36429	-0.2700118876069291
191	0x3fef7aa475818927	0.9837209982909244
192	0xbfd6be305bb460fd	-0.35535820918586564
193	0x400ea1663802ea51	3.8288082481279067
194	0x3fd9af34f73714cc	0.4013187803469236
195	0x3fc3cb001fd3f141	0.15463258318039588
196	0x3fe18affcedfe891	0.548217681934391
197	0xbf9d8e11e43c3595	-0.028862266116495745
198	0x3fc382973094e5fa	0.15242280838155847
199	0xbf787019da44a428	-0.005966282831914284
200	0x3fe245c081fbb656	0.5710146464095469
201	0xbf88641a076ef8b7	-0.011909678794719587
202	0x3f85c80aebd3ef06	0.010635457345862697
203	0xbfd1e5df3192367a	-0.27965526429111487
204	0x3f951cb4fe7ce8d4	0.020617321045599393
205	0x3fa15917e87f1924	0.0338828536328484
206	0xbfa4c4fdffd3961d	-0.0405654310978145
207	0xbfaa5ba5e1ea4722	-0.05148046858552237
208	0x3f95c48051fcdd9c	0.02125740528501084
209	0xbfa55d34a8686d1b	-0.04172672801743201
210	0x404ce07119eeaaaf	57.75345157769822
211	0xc03f53314239a4c9	-31.324970377991836
212	0x402977d6e62b73bd	12.734061425022327
213	0xc019cbfaa88dc500	-6.44919837346356
214	0xc00646d9642f82dc	-2.784594328594137
215	0xbff347c9f039d282	-1.2050265678236944
216	0xbfa775ae36a9f570	-0.045819706127967375
217	0xbff2f2091b06d0a5	-1.1840907150008573
218	0xbfee9f22637ffeea	-0.9569255774840404
219	0x3fdb5e5e07e7ea80	0.4276347233968991
220	0xbfe01d18858e9ae6	-0.5035517319236902
221	0x3f93a61544cf848d	0.019188244175783842
222	0x3fc6b22920e30c57	0.17731203180128105
223	0x3fe9843fd594fb69	0.7973937198183708
224	0xbfc4c6761e553f7b	-0.16230656128982077
225	0xbfb4dd0756b84f39	-0.08149762980638976
226	0xbfb43295030c1c8d	-0.07889682125470383
227	0xbfc0b2f2fd16e833	-0.13046109540829462
228	0x3fb90d9b9878a543	0.09786388847773701
229	0xbfb88a2ce3d81e4a	-0.09585838854410969
230	0xbf846a5b47706e7e	-0.009968484037066402
231	0xbfada3c9a920ad2c	-0.057890226264442596
232	0xbfaf6bca299e55fb	-0.06136924512899707
233	0xbfcdcc593e04e7ec	-0.2327987244441937
234	0x3fbbc8b0d9369655	0.10853104880387694
235	0x3f9454e49f7d8b1e	0.019855091318628053
236	0xbf6e34f5e73a6abb	-0.0036873629376946416
237	0x3f863286136ae97b	0.010838553874567882
238	0x3f91fcd7f86c372f	0.017566084420699454
239	0x3f8674b417a3b02c	0.010964781733910987
240	0xc05056f6d21c1d5c	-65.35881474252295
241	0x401f8329f56577e5	7.878089746778618
242	0x402030e48635062e	8.095493501637147
243	0xbfd61883d0181d7b	-0.34524627038668826
244	0x3ff762d7115a6fbc	1.4616308858739862
245	0x401409d41a341848	5.009598168782823
246	0xc015e6d3f5dd5530	-5.475417939790802
247	0x3fe5b68004a9b4b0	0.6785278407166029
248	0x3fdc4865aa98411a	0.44191877040522487
249	0x3fd2bdd3448cdba9	0.2928360146938141
250	0xbfb2b2bdb76a30b5	-0.07303987243557482
251	0xbfcfdeb2f47f1433	-0.24898373544979932
252	0xbfd114189493aecb	-0.2668515635439063
253	0x3fd10639fff5d587	0.26600503917810453
254	0xbf936a9632611e97	-0.01896128351680079
255	0x3f68c59a992602a2	0.0030239123818208294

b0 f8 [82]
0	0x40028323ba91d132	2.3140329910039776
1	0xc0003f1e744430fa	-2.030819805460962
2	0x3ff0705c0dc6a6f8	1.0274315393566535
3	0xbff9d49130871547	-1.6143962760555313
4	0x3fee23b8907c5a83	0.9418604681003021
5	0x3fb0cb8d2adc324c	0.06560594841375539
6	0x3ff8c76e1c135cc1	1.5486889931396919
7	0xbfdeb962e356c7ac	-0.4800650806529301
8	0xbff23b893db868d8	-1.139535180182568
9	0xbfed9548783373cf	-0.9244730327296738
10	0x4008ea1b5ef2f7d7	3.114310018338965
11	0x40064212cf417247	2.782262438950315
12	0xc01076e409ad5cb0	-4.116104270178013
13	0xbfacd68c8a8c1460	-0.05632437888383701
14	0xc001ba6039f4c66e	-2.2160038497757375
15	0x3fddbc0c0298cde9	0.4646024728164933
16	0x4000045909030f38	2.0021229461725873
17	0x400e5321e7d702c9	3.790592013596641
18	0x3fe587085a8aac0c	0.6727334755318011
19	0xc005a7bc47c30b08	-2.706902084960692
20	0x400680681e7160de	2.8126985910749758
21	0xbfe168af162646e0	-0.5440288002593796
22	0xbf73e87adc9bd1ae	-0.004860382012101301
23	0x3ff46c6fecdefa52	1.2764739277623858
24	0x4010f58776459da9	4.239774559020057
25	0x3ff315e0c02e03f8	1.192841292097226
26	0xbfe0d92138141d1b	-0.5265050978931954
27	0x3fd6ec01c57cddc3	0.3581547192183871
28	0x3ff7e6b57141c898	1.4938253807163502
29	0xbff0107bbbfa0ff5	-1.0040242522090896
30	0x3fd015738de15d85	0.2513092885542039
31	0x400127101fd0faad	2.1440737233782188
32	0xbff11320644f566c	-1.0671695631366687
33	0x4002b0a285ba8fbd	2.3362474868353886
34	0xbfd191e8a29c521a	-0.2745305622095501
35	0x3fcc43ac158a5303	0.22081519176267514
36	0xbff63cda55352025	-1.3898566559237306
37	0xc00448d4ddd7c8b3	-2.5355622607686086
38	0x3ffa97347c3173a5	1.6619152880950676
39	0xbff0d1f0bd375a1d	-1.0512549773462816
40	0x3fb2a40322d6622f	0.0728151283314069
41	0x400cf14b3d450e1b	3.6178192888926453
42	0xc012395624b64176	-4.555992673515325
43	0xbfd69ef9f7dca8d1	-0.3534531517531266
44	0xc00f9ac12f632e9a	-3.950563783849998
45	0x3ffca272822f5f8a	1.78965998509918
46	0x3fe05eb9e739aa1e	0.5115632549398617
47	0xbfe2b9922144a418	-0.5851526880043165
48	0x400ccfd0855d5398	3.601471940909004
49	0xbfef0c889d6d52e2	-0.9702799868342391
50	0x3ff6b2eea99c0411	1.418684637581695
51	0x3feffda4e0f258dc	0.999712409352266
52	0xc0099171ddb88078	-3.1960179635935297
53	0x3ff04f6c37f479a0	1.0193903146497192
54	0x3fdd4524a31bd55b	0.4573451607569347
55	0xc00357970964eaf4	-2.417768548385874
56	0xbfede0760da24579	-0.9336500421797346
57	0xbfc504b812199829	-0.1642065132502364
58	0x3fff82bb8ef66692	1.969417150923992
59	0x3ffe26b844e7820d	1.884453076512844
60	0xbffb5173136b4e85	-1.7073851355134206
61	0xc00e6ce8f2f6a604	-3.803178690101733
62	0x3fdd3077520931ae	0.456083135712812
63	0xbff5bb13ec2f7076	-1.3581732965458548
64	0xbffe0edb776264b3	-1.8786272681666503
65	0xbff5e2f6d349bb0f	-1.3679111722410118
66	0x3fe199e13ba6a1a6	0.5500341572815628
67	0x3fd63c18e4ffc63f	0.3474180446929473
68	0x3fec5a9b4c9ee7f3	0.8860603806017465
69	0xbfc7c31d0d7eab93	-0.18564189108778048
70	0xc00237f40455b483	-2.277320894113076
71	0x400427b5f5eb3098	2.51939003108971
72	0xbfeea285ba2e97d8	-0.9573391567580485
73	0x3fe330d1d2f0cae9	0.5997094268735427
74	0xc0129ba7a6347e41	-4.652006718591623
75	0xbff5376dc4545560	-1.3260324162596007
76	0x3fe5292b1b69fb35	0.661275437872837
77	0x3fec78d53129e9a3	0.8897500953892642
78	0xc001b7f16c46c197	-2.214815946492489
79	0x3f4f4ec3bc8314d9	0.0009554343933123834
80	0x400e6d7d8bda1a1a	3.803462116807407
81	0x3ffd6c403fa1702d	1.8389284596987736

b1 f8 [95]
0	0xbfcfaf969ce7ec5b	-0.2475460306303344
1	0xbff794d7c7c78184	-1.47383859671399
2	0x3fb76714fb5f6a86	0.09141665589360501
3	0x3ff18ff45d055b4f	1.0976451524381508
4	0xbfcb9127ca7967e6	-0.21536729227483348
5	0x3ff14e363a6316e0	1.0815946846718631
6	0x3ff381f8aa4a473e	1.2192312862357109
7	0xbff0d0985c39b8d6	-1.050926552062767
8	0xbfd1b63831369d70	-0.276746795711424
9	0x3ffc5ea89ecbdded	1.7731100275976772
10	0x3fed87cb67d9ec12	0.9228264835686579
11	0x3fe7e03a45a6fb01	0.746121536292634
12	0x3ffd92a96565cf9a	1.848306079945337
13	0xbfde55af730f83fe	-0.47397981869113426
14	0xbf8d584a7fc9b152	-0.01432855799176794
15	0x3fef7e6d98ed40e3	0.984183119473553
16	0xbfbeded5e8635aef	-0.12058770106828452
17	0x3ff305971eff2551	1.1888648234183459
18	0xbfd58a57a35248dd	-0.3365687460838112
19	0xbfecf44be51355f9	-0.9048213457232911
20	0xbfd865238ed32372	-0.3811730284474414
21	0x3fe809077bd5dd69	0.7511022013340326
22	0x3ff71d60edb96b15	1.444672516451367
23	0xbfc1d6363232855b	-0.13934972239534713
24	0xbff013cc21b129a4	-1.0048333469481827
25	0x3ff5f5090213de4b	1.3723230439335505
26	0x3fe9911497d04199	0.7989600148303452
27	0x3fdc51fc29a79088	0.4425039679320055
28	0x3fe8d474a07cf1df	0.7759345182926686
29	0xbfc563ca3b163c85	-0.167107848025328
30	0xbfe584ba880d91bb	-0.6724522263798954
31	0x3fea0556b0382671	0.8131516877921979
32	0x3ff492f1e4f08345	1.2858752196263634
33	0xbfe7286a02737996	-0.7236833618042506
34	0x3fd10b3036879d73	0.26630788159533053
35	0x3fe23d724b0cf266	0.5700007882911222
36	0x3fd4513914c6ef2b	0.31745745686542887
37	0xbfcf6e6070fefdac	-0.2455559303034368
38	0x3fed3fe0bd044db8	0.9140475932821834
39	0xbfd299cfe3e1b221	-0.29063794378342506
40	0x3fe5779c3efa3f20	0.6708508710889625
41	0x3fd9865b40c74f72	0.3988254673579298
42	0x3fd3931092dee009	0.30585111944992655
43	0x3fcbd4de1a8e09c8	0.21743370339033974
44	0xbff462ab21bc7a37	-1.2740889852353925
45	0xbfe02b7e8e7871fe	-0.5053093702913996
46	0x3fe6d8bc2afe6d2e	0.7139569129680348
47	0xbf6c8ea797de27c1	-0.003485991793188398
48	0xbfc63cf019c3974a	-0.17373467691430228
49	0x3ff05b038966b473	1.0222201697572728
50	0xbfbf1c6ab63a352c	-0.12152735661421293
51	0x3feffe8f1bc00d1d	0.9998240987773986
52	0x3fe0ba049a8b86f4	0.5227072733361795
53	0x3fc0b6c610add77f	0.130577810424878
54	0x3ff075010794a3ed	1.02856543503935
55	0xbfeba457d0fc0f76	-0.8638114053469355
56	0xbfe609da965d2d4e	-0.6887028633877124
57	0xbff4fb09ce9c1737	-1.3112886496250675
58	0x3fda4b66e579a20c	0.4108521691291862
59	0x3febd6424bcce439	0.8699046593166094
60	0xbff1d34baacaaf07	-1.1140858336975172
61	0x3ffa013bdb1f6e96	1.6253012237056388
62	0xbff65c83de88ad0e	-1.397586697838793
63	0xbfc426b5191583d4	-0.15743125653082635
64	0xc00391ce90ceb9a4	-2.4461947739684593
65	0xbffa87f9990a6db1	-1.6581970194009552
66	0x3fdc971a316c45b6	0.44672255350550516
67	0x3fed2a3fd6e5f958	0.9114073941453098
68	0xbff4a3bea2b528a8	-1.2899767261283532
69	0xbfec1fb3c6eb0dfe	-0.8788699040528056
70	0xbfe4cff647266b7b	-0.6503859891557647
71	0x400687ee0f2a3c64	2.816372030712545
72	0xbfe998ceaf83a6ab	-0.7999032428753784
73	0x3ffc143e2dea4b6f	1.7549421113551167
74	0x3fe10b1c694978a5	0.5326063209902442
75	0x3fe5c25c7235eee1	0.6799757223775168
76	0x3fed49d52ffcef19	0.9152627885118562
77	0x3feb106880979cdb	0.8457529555861599
78	0x3fd866234703eb54	0.3812339967259295
79	0x3fb201a83a2b1436	0.07033778591274217
80	0xbfc30dfcb6265d8e	-0.14886435407673243
81	0xbff8a2c48a6e8d1b	-1.5397382171148084
82	0x3fc29dd547b5981c	0.1454416847365686
83	0x3fff78bb0e50aa49	1.966975265425065
84	0x3ff7eb4aa5da176f	1.4949442366209629
85	0x3fe22d88236c9ff2	0.5680580798989452
86	0xbfe5d3e01f0baaf6	-0.6821137052878317
87	0xbfe7dd53ee8353d7	-0.7457675608117097
88	0x3fbc02c7cb7069d0	0.10941742626929529
89	0x3ff3684f378bf08c	1.2129661721983522
90	0xbff7758420a09a88	-1.4661904596811457
91	0xbfdd2b9eb3bdcaf7	-0.4557873492514512
92	0xbfeea4e9a3ec6502	-0.9576309396390175
93	0xbff728ae94f658ec	-1.4474321192588446
94	0xbfcc4fb4ddfe4009	-0.22118244971761694

b2 f8 [30]
0	0x4037b925c1506db1	23.72323234761797
1	0x4053a577eb074e98	78.58544421876502
2	0xc03f3d2474a043da	-31.238837517859658
3	0x4041c2d1893b96e1	35.52201953324926
4	0x401bcf07a31fa09a	6.952177571111088
5	0x402101f96c2ce103	8.503856068113697
6	0x4037169e0cccc22a	23.088349151601655
7	0xc00b630444ef1c2f	-3.4233479867430314
8	0x4009b5ce51e4fc07	3.2137724302297133
9	0xc0052577b6eca502	-2.6432947436302365
10	0xc002dd89fa86758e	-2.3581733295711222
11	0x3fe1cfdf82d735f3	0.5566251330835129
12	0x3fd7b55cca3190fe	0.37044448609800884
13	0x4000120dc00c9b4b	2.008815288910602
14	0xbfea9551e19c44c6	-0.8307275206044771
15	0x3fa7fbe98c0a4f45	0.04684381327129342
16	0xbfdbc58bc2308cd0	-0.43393224681694864
17	0x3fb1d8ed697731ba	0.06971629929393588
18	0xbfab9fe4741e7f8f	-0.05395425717801949
19	0xbfbaba856d69487a	-0.10440858765767472
20	0x3ff7b02da5857652	1.480512281959268
21	0x3fb6384589776a5e	0.08679613691439544
22	0x3fb919cd82389b72	0.09804996899820909
23	0xbfd6affc505e7ee6	-0.3544913086752629
24	0xbfc8b63483b0f97b	-0.19306045942535008
25	0x3fd1cf36dceb9f20	0.2782723576951742
26	0xbfa963ddcf2d1b0b	-0.04959004549032472
27	0x3f9440151d187f8c	0.01977570524297749
28	0x3f9a89e9d4a3a330	0.025916722873179754
29	0x3fa30f7879a14e66	0.0372274063562628
